{"architecture":{"class_name":"Functional","config":{"name":"sequential","trainable":true,"layers":[{"class_name":"InputLayer","config":{"batch_input_shape":[null,60],"dtype":"float32","sparse":false,"ragged":false,"name":"input_1"},"name":"input_1","inbound_nodes":[]},{"class_name":"Dense","config":{"name":"dense","trainable":true,"dtype":"float32","batch_input_shape":[null,60],"units":200,"activation":"relu","use_bias":true,"kernel_initializer":{"class_name":"HeUniform","config":{"seed":null}},"bias_initializer":{"class_name":"Zeros","config":{}},"kernel_regularizer":null,"bias_regularizer":null,"activity_regularizer":null,"kernel_constraint":null,"bias_constraint":null},"name":"dense","inbound_nodes":[[["input_1",0,0,{}]]]},{"class_name":"Dense","config":{"name":"dense_1","trainable":true,"dtype":"float32","units":150,"activation":"relu","use_bias":true,"kernel_initializer":{"class_name":"HeUniform","config":{"seed":null}},"bias_initializer":{"class_name":"Zeros","config":{}},"kernel_regularizer":null,"bias_regularizer":null,"activity_regularizer":null,"kernel_constraint":null,"bias_constraint":null},"name":"dense_1","inbound_nodes":[[["dense",0,0,{}]]]},{"class_name":"Dense","config":{"name":"dense_2","trainable":true,"dtype":"float32","units":50,"activation":"relu","use_bias":true,"kernel_initializer":{"class_name":"HeUniform","config":{"seed":null}},"bias_initializer":{"class_name":"Zeros","config":{}},"kernel_regularizer":null,"bias_regularizer":null,"activity_regularizer":null,"kernel_constraint":null,"bias_constraint":null},"name":"dense_2","inbound_nodes":[[["dense_1",0,0,{}]]]},{"class_name":"Dense","config":{"name":"dense_3","trainable":true,"dtype":"float32","units":3,"activation":"linear","use_bias":true,"kernel_initializer":{"class_name":"GlorotUniform","config":{"seed":null}},"bias_initializer":{"class_name":"Zeros","config":{}},"kernel_regularizer":null,"bias_regularizer":null,"activity_regularizer":null,"kernel_constraint":null,"bias_constraint":null},"name":"dense_3","inbound_nodes":[[["dense_2",0,0,{}]]]}],"input_layers":[["input_1",0,0]],"output_layers":[["dense_3",0,0]]},"keras_version":"2.12.0","backend":"tensorflow"},"image_data_format":"channels_last","input_shapes":[[60]],"output_shapes":[[3]],"tests":[{"inputs":[{"shape":[60],"values":["…"]}],"outputs":[{"shape":[3],"values":["kd7gPddOm76erBA+"]}]}],"trainable_params":{"dense":{"weights":["…","…","…","…","…","…","…","…","…","…","…","…","…","…","…","…","…","…","…","…","…","…","…","…","…","…","…","…","…","…","…","…","…","…","…","…","…","…","…","…","…","…","…","…","…","…","…","…","…","…","…","…","…","…","…","…","…","…","…","…","…","…","…"],"bias":["…","nPgOvtFanb3EhQa+d5PzPcsdXL4TGme+7dqyPb49iL4="]},"dense_1":{"weights":["…","…","…","…","…","…","…","…","…","…","…","…","…","…","…","…","…","…","…","…","…","…","…","…","…","…","…","…","…","…","…","…","…","…","…","…","…","…","…","…","…","…","…","…","…","…","…","…","…","…","…","…","…","…","…","…","…","…","…","…","…","…","…","…","…","…","…","…","…","…","…","…","…","…","…","…","…","…","…","…","…","…","…","…","…","…","…","…","…","…","…","…","…","…","…","…","…","…","…","…","…","…","…","…","…","…","…","…","…","…","…","…","…","…","…","…","…","…","…","…","…","…","…","…","…","…","…","…","…","…","…","…","…","…","…","…","…","…","…","…","…","…","…","…","…","…","…","…","…","…","…","…","…","…","…","…","…"],"bias":["…"]},"dense_2":{"weights":["…","…","…","…","…","…","…","…","…","…","…","…","…","…","…","…","…","…","…","…","…","…","…","…","…","…","…","…","…","…","…","…","…","…","…","…","…","…","…","WfQ0vs97Fj0t8BE+iYSYvcRiEz4mxQY9zTsMvuv78jyY0de9HP6MPUyqPj4eH989"],"bias":["…"]},"dense_3":{"weights":["…"],"bias":["Vf2APPxIPjxVS+s9"]}},"hash":"9104c6aa3c4ada5e450c9f4f24f861c34fbc586175e7e1ad9fa80adfbb33016c"}