{"architecture":{"class_name":"Functional","config":{"name":"sequential_2","layers":[{"class_name":"InputLayer","config":{"batch_input_shape":[null,60],"dtype":"float32","sparse":false,"ragged":false,"name":"input_1"},"name":"input_1","inbound_nodes":[]},{"class_name":"Dense","config":{"name":"dense_8","trainable":true,"dtype":"float32","batch_input_shape":[null,60],"units":200,"activation":"relu","use_bias":true,"kernel_initializer":{"class_name":"HeUniform","config":{"seed":null}},"bias_initializer":{"class_name":"Zeros","config":{}},"kernel_regularizer":null,"bias_regularizer":null,"activity_regularizer":null,"kernel_constraint":null,"bias_constraint":null},"name":"dense_8","inbound_nodes":[[["input_1",0,0,{}]]]},{"class_name":"Dense","config":{"name":"dense_9","trainable":true,"dtype":"float32","units":150,"activation":"relu","use_bias":true,"kernel_initializer":{"class_name":"HeUniform","config":{"seed":null}},"bias_initializer":{"class_name":"Zeros","config":{}},"kernel_regularizer":null,"bias_regularizer":null,"activity_regularizer":null,"kernel_constraint":null,"bias_constraint":null},"name":"dense_9","inbound_nodes":[[["dense_8",0,0,{}]]]},{"class_name":"Dense","config":{"name":"dense_10","trainable":true,"dtype":"float32","units":50,"activation":"relu","use_bias":true,"kernel_initializer":{"class_name":"HeUniform","config":{"seed":null}},"bias_initializer":{"class_name":"Zeros","config":{}},"kernel_regularizer":null,"bias_regularizer":null,"activity_regularizer":null,"kernel_constraint":null,"bias_constraint":null},"name":"dense_10","inbound_nodes":[[["dense_9",0,0,{}]]]},{"class_name":"Dense","config":{"name":"dense_11","trainable":true,"dtype":"float32","units":3,"activation":"linear","use_bias":true,"kernel_initializer":{"class_name":"GlorotUniform","config":{"seed":null}},"bias_initializer":{"class_name":"Zeros","config":{}},"kernel_regularizer":null,"bias_regularizer":null,"activity_regularizer":null,"kernel_constraint":null,"bias_constraint":null},"name":"dense_11","inbound_nodes":[[["dense_10",0,0,{}]]]}],"input_layers":[["input_1",0,0]],"output_layers":[["dense_11",0,0]]},"keras_version":"2.11.0","backend":"tensorflow"},"image_data_format":"channels_last","input_shapes":[[60]],"output_shapes":[[3]],"tests":[{"inputs":[{"shape":[60],"values":["…"]}],"outputs":[{"shape":[3],"values":["xl77PkZl6b5zVX0+"]}]}],"trainable_params":{"dense_8":{"weights":["…","…","…","…","…","…","…","…","…","…","…","…","…","…","…","…","…","…","…","…","…","…","…","…","…","…","…","…","…","…","…","…","…","…","…","…","…","…","…","…","…","…","…","…","…","…","…","…","…","…","…","…","…","…","…","…","…","…","…","…","…","…","…"],"bias":["…","rBBhvRNaqb2yf8y8HjDHvdudBb7UbVa9aRs0veuOL70="]},"dense_9":{"weights":["…","…","…","…","…","…","…","…","…","…","…","…","…","…","…","…","…","…","…","…","…","…","…","…","…","…","…","…","…","…","…","…","…","…","…","…","…","…","…","…","…","…","…","…","…","…","…","…","…","…","…","…","…","…","…","…","…","…","…","…","…","…","…","…","…","…","…","…","…","…","…","…","…","…","…","…","…","…","…","…","…","…","…","…","…","…","…","…","…","…","…","…","…","…","…","…","…","…","…","…","…","…","…","…","…","…","…","…","…","…","…","…","…","…","…","…","…","…","…","…","…","…","…","…","…","…","…","…","…","…","…","…","…","…","…","…","…","…","…","…","…","…","…","…","…","…","…","…","…","…","…","…","…","…","…","…","…"],"bias":["…"]},"dense_10":{"weights":["…","…","…","…","…","…","…","…","…","…","…","…","…","…","…","…","…","…","…","…","…","…","…","…","…","…","…","…","…","…","…","…","…","…","…","…","…","…","…","4o7svPAXKr3T9QG+uwoBvu3NxD2YSYC+coe+vcuuvL3EiSG+J1j9OvuA2z2Wx4G7"],"bias":["…"]},"dense_11":{"weights":["…"],"bias":["y6eku5V9ETzX+4M8"]}},"hash":"6e09af88273132329119aca45fe9a56f28ea58342d6bb3997a75f2b0b8b9ad4c"}