{"architecture":{"class_name":"Functional","config":{"name":"sequential","trainable":true,"layers":[{"class_name":"InputLayer","config":{"batch_input_shape":[null,60],"dtype":"float32","sparse":false,"ragged":false,"name":"input_1"},"name":"input_1","inbound_nodes":[]},{"class_name":"Dense","config":{"name":"dense","trainable":true,"dtype":"float32","batch_input_shape":[null,60],"units":200,"activation":"relu","use_bias":true,"kernel_initializer":{"class_name":"HeUniform","config":{"seed":null}},"bias_initializer":{"class_name":"Zeros","config":{}},"kernel_regularizer":null,"bias_regularizer":null,"activity_regularizer":null,"kernel_constraint":null,"bias_constraint":null},"name":"dense","inbound_nodes":[[["input_1",0,0,{}]]]},{"class_name":"Dense","config":{"name":"dense_1","trainable":true,"dtype":"float32","units":150,"activation":"relu","use_bias":true,"kernel_initializer":{"class_name":"HeUniform","config":{"seed":null}},"bias_initializer":{"class_name":"Zeros","config":{}},"kernel_regularizer":null,"bias_regularizer":null,"activity_regularizer":null,"kernel_constraint":null,"bias_constraint":null},"name":"dense_1","inbound_nodes":[[["dense",0,0,{}]]]},{"class_name":"Dense","config":{"name":"dense_2","trainable":true,"dtype":"float32","units":50,"activation":"relu","use_bias":true,"kernel_initializer":{"class_name":"HeUniform","config":{"seed":null}},"bias_initializer":{"class_name":"Zeros","config":{}},"kernel_regularizer":null,"bias_regularizer":null,"activity_regularizer":null,"kernel_constraint":null,"bias_constraint":null},"name":"dense_2","inbound_nodes":[[["dense_1",0,0,{}]]]},{"class_name":"Dense","config":{"name":"dense_3","trainable":true,"dtype":"float32","units":3,"activation":"linear","use_bias":true,"kernel_initializer":{"class_name":"GlorotUniform","config":{"seed":null}},"bias_initializer":{"class_name":"Zeros","config":{}},"kernel_regularizer":null,"bias_regularizer":null,"activity_regularizer":null,"kernel_constraint":null,"bias_constraint":null},"name":"dense_3","inbound_nodes":[[["dense_2",0,0,{}]]]}],"input_layers":[["input_1",0,0]],"output_layers":[["dense_3",0,0]]},"keras_version":"2.12.0","backend":"tensorflow"},"image_data_format":"channels_last","input_shapes":[[60]],"output_shapes":[[3]],"tests":[{"inputs":[{"shape":[60],"values":["…"]}],"outputs":[{"shape":[3],"values":["GBQyvc/UNL1bOVE9"]}]}],"trainable_params":{"dense":{"weights":["…","…","…","…","…","…","…","…","…","…","…","…","…","…","…","…","…","…","…","…","…","…","…","…","…","…","…","…","…","…","…","…","…","…","…","…","…","…","…","…","…","…","…","…","…","…","…","…","…","…","…","…","…","…","…","…","…","…","…","…","…","…","…"],"bias":["…","Q/eDvkgCDr7e5ka+i417vvuKaj2bZ0W+86MvvhExuz0="]},"dense_1":{"weights":["…","…","…","…","…","…","…","…","…","…","…","…","…","…","…","…","…","…","…","…","…","…","…","…","…","…","…","…","…","…","…","…","…","…","…","…","…","…","…","…","…","…","…","…","…","…","…","…","…","…","…","…","…","…","…","…","…","…","…","…","…","…","…","…","…","…","…","…","…","…","…","…","…","…","…","…","…","…","…","…","…","…","…","…","…","…","…","…","…","…","…","…","…","…","…","…","…","…","…","…","…","…","…","…","…","…","…","…","…","…","…","…","…","…","…","…","…","…","…","…","…","…","…","…","…","…","…","…","…","…","…","…","…","…","…","…","…","…","…","…","…","…","…","…","…","…","…","…","…","…","…","…","…","…","…","…","…"],"bias":["…"]},"dense_2":{"weights":["…","…","…","…","…","…","…","…","…","…","…","…","…","…","…","…","…","…","…","…","…","…","…","…","…","…","…","…","…","…","…","…","…","…","…","…","…","…","…","ZtwzviQkpD03fiA+qoTnPbEa3bw5Zci9nMgHPir3Qr1clJG9MJr0PTgTZT0/YwG+"],"bias":["…"]},"dense_3":{"weights":["…"],"bias":["5EHjOxqSwLvv4cg9"]}},"hash":"76d269040d98e29741105902682b4a0c463e0c6368c47ac52566b17c84f4319d"}