{"architecture":{"class_name":"Functional","config":{"name":"sequential_1","trainable":true,"layers":[{"class_name":"InputLayer","config":{"batch_input_shape":[null,60],"dtype":"float32","sparse":false,"ragged":false,"name":"input_1"},"name":"input_1","inbound_nodes":[]},{"class_name":"Dense","config":{"name":"dense_4","trainable":true,"dtype":"float32","batch_input_shape":[null,60],"units":200,"activation":"relu","use_bias":true,"kernel_initializer":{"class_name":"HeUniform","config":{"seed":null}},"bias_initializer":{"class_name":"Zeros","config":{}},"kernel_regularizer":null,"bias_regularizer":null,"activity_regularizer":null,"kernel_constraint":null,"bias_constraint":null},"name":"dense_4","inbound_nodes":[[["input_1",0,0,{}]]]},{"class_name":"Dense","config":{"name":"dense_5","trainable":true,"dtype":"float32","units":150,"activation":"relu","use_bias":true,"kernel_initializer":{"class_name":"HeUniform","config":{"seed":null}},"bias_initializer":{"class_name":"Zeros","config":{}},"kernel_regularizer":null,"bias_regularizer":null,"activity_regularizer":null,"kernel_constraint":null,"bias_constraint":null},"name":"dense_5","inbound_nodes":[[["dense_4",0,0,{}]]]},{"class_name":"Dense","config":{"name":"dense_6","trainable":true,"dtype":"float32","units":50,"activation":"relu","use_bias":true,"kernel_initializer":{"class_name":"HeUniform","config":{"seed":null}},"bias_initializer":{"class_name":"Zeros","config":{}},"kernel_regularizer":null,"bias_regularizer":null,"activity_regularizer":null,"kernel_constraint":null,"bias_constraint":null},"name":"dense_6","inbound_nodes":[[["dense_5",0,0,{}]]]},{"class_name":"Dense","config":{"name":"dense_7","trainable":true,"dtype":"float32","units":3,"activation":"linear","use_bias":true,"kernel_initializer":{"class_name":"GlorotUniform","config":{"seed":null}},"bias_initializer":{"class_name":"Zeros","config":{}},"kernel_regularizer":null,"bias_regularizer":null,"activity_regularizer":null,"kernel_constraint":null,"bias_constraint":null},"name":"dense_7","inbound_nodes":[[["dense_6",0,0,{}]]]}],"input_layers":[["input_1",0,0]],"output_layers":[["dense_7",0,0]]},"keras_version":"2.12.0","backend":"tensorflow"},"image_data_format":"channels_last","input_shapes":[[60]],"output_shapes":[[3]],"tests":[{"inputs":[{"shape":[60],"values":["…"]}],"outputs":[{"shape":[3],"values":["W5+EvuOlnr6Oatq8"]}]}],"trainable_params":{"dense_4":{"weights":["…","…","…","…","…","…","…","…","…","…","…","…","…","…","…","…","…","…","…","…","…","…","…","…","…","…","…","…","…","…","…","…","…","…","…","…","…","…","…","…","…","…","…","…","…","…","…","…","…","…","…","…","…","…","…","…","…","…","…","…","…","…","…"],"bias":["…","8VO5usuhDbxJadS9MASqveODw72YNAG92m2Buxam+b0="]},"dense_5":{"weights":["…","…","…","…","…","…","…","…","…","…","…","…","…","…","…","…","…","…","…","…","…","…","…","…","…","…","…","…","…","…","…","…","…","…","…","…","…","…","…","…","…","…","…","…","…","…","…","…","…","…","…","…","…","…","…","…","…","…","…","…","…","…","…","…","…","…","…","…","…","…","…","…","…","…","…","…","…","…","…","…","…","…","…","…","…","…","…","…","…","…","…","…","…","…","…","…","…","…","…","…","…","…","…","…","…","…","…","…","…","…","…","…","…","…","…","…","…","…","…","…","…","…","…","…","…","…","…","…","…","…","…","…","…","…","…","…","…","…","…","…","…","…","…","…","…","…","…","…","…","…","…","…","…","…","…","…","…"],"bias":["…"]},"dense_6":{"weights":["…","…","…","…","…","…","…","…","…","…","…","…","…","…","…","…","…","…","…","…","…","…","…","…","…","…","…","…","…","…","…","…","…","…","…","…","…","…","…","boGfvTi9Uz2vYhA+7qqTvTAYDD5LdIg9ktfXvY5Asj0aXMG9tDcxPaG6TT5GDAw+"],"bias":["…"]},"dense_7":{"weights":["…"],"bias":["uIfVu+HjF7wJw6U7"]}},"hash":"30b8f21c491e34f3c7b5d301cb190dd7f6a2361d6be81810ee6df12e9ed9b097"}